…
) input=input[:,1,:,:].unsqueeze(1) target=target.float() loss = self.alpha*self.focal(input, target) - torch.log(dice_loss(input, target)) return loss.mean() def Iou(input, target): return dice(input,target,iou=True) . learn = unet_learner(data, models.resnet18, bottle=True,loss_func=MixedLoss(10.0, 2.0),metrics=[accuracy_thresh,dice,Iou],callback_fns=BnFreeze).to_fp16() . learn.summary() . DynamicUnet ====================================================================== Layer (type) Output Shape Param # Trainable ====================================================================== Conv2d [64, 128, 128] 9,408 False ______________________________________________________________________ BatchNorm2d [64, 128, 128] 128 True ______________________________________________________________________ ReLU [64, 128, 128] 0 False ______________________________________________________________________ MaxPool2d [64, 64, 64] 0 False ______________________________________________________________________ Conv2d [64, 64, 64] 36,864 False ______________________________________________________________________ BatchNorm2d [64, 64, 64] 128 True ______________________________________________________________________ ReLU [64, 64, 64] 0 False ______________________________________________________________________ Conv2d [64, 64, 64] 36,864 False ______________________________________________________________________ BatchNorm2d [64, 64, 64] 128 True ______________________________________________________________________ Conv2d [64, 64, 64] 36,864 False ______________________________________________________________________ BatchNorm2d [64, 64, 64] 128 True ______________________________________________________________________ ReLU [64, 64, 64] 0 False ______________________________________________________________________ Conv2d [64, 64, 64] 36,864 False ______________________________________________________________________ BatchNorm2d [64, 64, 64] 128 True ______________________________________________________________________ Conv2d [128, 32, 32] 73,728 False ______________________________________________________________________ BatchNorm2d [128, 32, 32] 256 True ______________________________________________________________________ ReLU [128, 32, 32] 0 False ______________________________________________________________________ Conv2d [128, 32, 32] 147,456 False ______________________________________________________________________ BatchNorm2d [128, 32, 32] 256 True ______________________________________________________________________ Conv2d [128, 32, 32] 8,192 False ______________________________________________________________________ BatchNorm2d [128, 32, 32] 256 True ______________________________________________________________________ Conv2d [128, 32, 32] 147,456 False ______________________________________________________________________ BatchNorm2d [128, 32, 32] 256 True ______________________________________________________________________ ReLU [128, 32, 32] 0 False ______________________________________________________________________ Conv2d [128, 32, 32] 147,456 False ______________________________________________________________________ BatchNorm2d [128, 32, 32] 256 True ______________________________________________________________________ Conv2d [256, 16, 16] 294,912 False ______________________________________________________________________ BatchNorm2d [256, 16, 16] 512 True ______________________________________________________________________ ReLU [256, 16, 16] 0 False ______________________________________________________________________ Conv2d [256, 16, 16] 589,824 False ______________________________________________________________________ BatchNorm2d [256, 16, 16] 512 True ______________________________________________________________________ Conv2d [256, 16, 16] 32,768 False ______________________________________________________________________ BatchNorm2d [256, 16, 16] 512 True ______________________________________________________________________ Conv2d [256, 16, 16] 589,824 False ______________________________________________________________________ BatchNorm2d [256, 16, 16] 512 True ______________________________________________________________________ ReLU [256, 16, 16] 0 False ______________________________________________________________________ Conv2d [256, 16, 16] 589,824 False ______________________________________________________________________ BatchNorm2d [256, 16, 16] 512 True ______________________________________________________________________ Conv2d [512, 8, 8] 1,179,648 False ______________________________________________________________________ BatchNorm2d [512, 8, 8] 1,024 True ______________________________________________________________________ ReLU [512, 8, 8] 0 False ______________________________________________________________________ Conv2d [512, 8, 8] 2,359,296 False ______________________________________________________________________ BatchNorm2d [512, 8, 8] 1,024 True ______________________________________________________________________ Conv2d [512, 8, 8] 131,072 False ______________________________________________________________________ BatchNorm2d [512, 8, 8] 1,024 True ______________________________________________________________________ Conv2d [512, 8, 8] 2,359,296 False ______________________________________________________________________ BatchNorm2d [512, 8, 8] 1,024 True ______________________________________________________________________ ReLU [512, 8, 8] 0 False ______________________________________________________________________ Conv2d [512, 8, 8] 2,359,296 False ______________________________________________________________________ BatchNorm2d [512, 8, 8] 1,024 True ______________________________________________________________________ BatchNorm2d [512, 8, 8] 1,024 True ______________________________________________________________________ ReLU [512, 8, 8] 0 False ______________________________________________________________________ Conv2d [1024, 8, 8] 4,719,616 True ______________________________________________________________________ ReLU [1024, 8, 8] 0 False ______________________________________________________________________ Conv2d [512, 8, 8] 4,719,104 True ______________________________________________________________________ ReLU [512, 8, 8] 0 False ______________________________________________________________________ Conv2d [1024, 8, 8] 525,312 True ______________________________________________________________________ PixelShuffle [256, 16, 16] 0 False ______________________________________________________________________ ReLU [1024, 8, 8] 0 False ______________________________________________________________________ BatchNorm2d [256, 16, 16] 512 True ______________________________________________________________________ Conv2d [512, 16, 16] 2,359,808 True ______________________________________________________________________ ReLU [512, 16, 16] 0 False ______________________________________________________________________ Conv2d [512, 16, 16] 2,359,808 True ______________________________________________________________________ ReLU [512, 16, 16] 0 False ______________________________________________________________________ ReLU [512, 16, 16] 0 False ______________________________________________________________________ Conv2d [1024, 16, 16] 525,312 True ______________________________________________________________________ PixelShuffle [256, 32, 32] 0 False ______________________________________________________________________ ReLU [1024, 16, 16] 0 False ______________________________________________________________________ BatchNorm2d [128, 32, 32] 256 True ______________________________________________________________________ Conv2d [384, 32, 32] 1,327,488 True ______________________________________________________________________ ReLU [384, 32, 32] 0 False ______________________________________________________________________ Conv2d [384, 32, 32] 1,327,488 True ______________________________________________________________________ ReLU [384, 32, 32] 0 False ______________________________________________________________________ ReLU [384, 32, 32] 0 False ______________________________________________________________________ Conv2d [768, 32, 32] 295,680 True ______________________________________________________________________ PixelShuffle [192, 64, 64] 0 False ______________________________________________________________________ ReLU [768, 32, 32] 0 False ______________________________________________________________________ BatchNorm2d [64, 64, 64] 128 True ______________________________________________________________________ Conv2d [256, 64, 64] 590,080 True ______________________________________________________________________ ReLU [256, 64, 64] 0 False ______________________________________________________________________ Conv2d [256, 64, 64] 590,080 True ______________________________________________________________________ ReLU [256, 64, 64] 0 False ______________________________________________________________________ ReLU [256, 64, 64] 0 False ______________________________________________________________________ Conv2d [512, 64, 64] 131,584 True ______________________________________________________________________ PixelShuffle [128, 128, 128] 0 False ______________________________________________________________________ ReLU [512, 64, 64] 0 False ______________________________________________________________________ BatchNorm2d [64, 128, 128] 128 True ______________________________________________________________________ Conv2d [96, 128, 128] 165,984 True ______________________________________________________________________ ReLU [96, 128, 128] 0 False ______________________________________________________________________ Conv2d [96, 128, 128] 83,040 True ______________________________________________________________________ ReLU [96, 128, 128] 0 False ______________________________________________________________________ ReLU [192, 128, 128] 0 False ______________________________________________________________________ Conv2d [384, 128, 128] 37,248 True ______________________________________________________________________ PixelShuffle [96, 256, 256] 0 False ______________________________________________________________________ ReLU [384, 128, 128] 0 False ______________________________________________________________________ MergeLayer [99, 256, 256] 0 False ______________________________________________________________________ Conv2d [49, 256, 256] 43,708 True ______________________________________________________________________ ReLU [49, 256, 256] 0 False ______________________________________________________________________ Conv2d [99, 256, 256] 43,758 True ______________________________________________________________________ ReLU [99, 256, 256] 0 False ______________________________________________________________________ MergeLayer [99, 256, 256] 0 False ______________________________________________________________________ Conv2d [3, 256, 256] 300 True ______________________________________________________________________ Total params: 31,023,958 Total trainable params: 19,857,046 Total non-trainable params: 11,166,912 Optimized with &#39;torch.optim.adam.Adam&#39;, betas=(0.9, 0.99) Using true weight decay as discussed in https://www.fast.ai/2018/07/02/adam-weight-decay/ Loss function : MixedLoss ==========================================
…
